…
  - Conv2D with 64 filters, ReLU activation, followed by MaxPooling.
- **Fully Connected Layers**:
  - Flattening layer to convert 2D feature maps to 1D.
  - Dense layer with 128 neurons and ReLU activation.
  - Another Dense layer with 128 neurons and ReLU activation.
- **Output Layer**:
  - Dense layer with 15 neurons and Softmax activation for multi-class classification.

**Model Summary**:
```
Model: "sequential"
_________________________________________________________________
 Layer (type)                Output Shape              Param #   
=================================================================
 conv2d (Conv2D)             (None, 62, 62, 32)        320       
 max_pooling2d (MaxPooling2D (None, 31, 31, 32)        0         
 conv2d_1 (Conv2D)           (None, 29, 29, 64)        18496     
 max_pooling2d_1 (MaxPooling (None, 14, 14, 64)        0         
 flatten (Flatten)           (None, 12544)             0         
 dense (Dense)               (None, 128)               1605760   
 dense_1 (Dense)             (None, 128)               16512     
 dense_2 (Dense)             (None, 15)                1935      
=================================================================
Total params: 1,643,023
Trainable params: 1,643,023
Non-trainable params: 0
_________________________________________________________________
```

---

## Training Details

- **Loss Function**: Categorical Cross-Entropy
- **Optimizer**: Adam
- **Metrics**: Accuracy
- **Batch Size**: 32
- **Epochs**: 10

---

## Results

The model achieved an accuracy of **94.46%** on the test set after 10 epochs, with the following performance:
…
